model.pt (torch, 182835 bytes, 18 tensors)

net.0.weight f4 [32, 2, 7]
00000000: b64e a6be 6bc9 5cbe 5727 09be 136a 953d
00000010: 1525 173d 4b94 933d 8d6a 463d 9e55 a2be
00000020: 6686 093e e06f 5b3e b483 9d3d 7eb1 4dbe
00000030: 8245 433e 339e 723d 42a5 7d3e a0d4 da3d
00000040: 4cc5 e83d cd47 123e 2013 453e 8546 5d3e
00000050: 4b02 8ebe fdc1 2fbe ca14 2c3e 36a3 55be
00000060: a36b fa3d 1f97 80be b7dd 82be 0d30 223e
00000070: 6e73 8a3d e0a9 3dbe 6f19 7a3e 40fd 3bbe
00000080: e374 27be 74dc 8cbe 2098 2bbc 2434 433e
00000090: cafe d0bd 0c17 7e3e d547 8abe 45e8 083e
000000a0: a7f4 303c a6ff cfbd 0282 b3be d9a9 cf3d
000000b0: cda4 443e b73e 483e 1e88 593e 5ddf 683d
000000c0: 06f0 94bd 6d6f 0a3d 838a 90be 353a 8bbe
000000d0: 00a1 12be 149e 4f3e 3b48 f73d 9ffd 213e
000000e0: 4e01 183e da1a 7b3d 206a e03d 9394 213d
000000f0: b456 1cbe 0678 08be 9809 f23a 1451 88be
00000100: 5b0c 403e 6a79 80bd 0618 b53d dfa8 5fbd
00000110: e18a b9be 1ad1 ef3d 266e 95bd 9527 c53d
00000120: e33d 163e 7e34 5dbe b86e 9abe ac98 82be
00000130: 8cfd a4bd a495 70bc b2d5 843e 7c13 263d
00000140: 603d d33d 5ca1 89be bdb3 703d 460a 5c3e
00000150: 1d97 99bd ef5f 18be 892d 6fbd 0a61 5abd
00000160: 0603 ebbc 5c6b 183e 342e 313d 934c cd3c
00000170: 10b1 333d 8640 c83c 39a5 f0bd e214 7c3e
00000180: dd5b 5fbd f488 a23d 5a7a 173d 793f 38be
00000190: c10b 9dbe f7d5 ec3d 8420 44be 9dd2 923d
000001a0: 8195 403e 8439 ffbd ef25 77bd 7aa2 2cbe
000001b0: d886 b0be 65fb ad3d 418b 43bd b202 eabd
000001c0: a672 00bd 5451 9fbd 10ba abbd 22f1 d9bd
000001d0: e6a7 5dbe b72f 44bc a3b5 8b3e ef29 0b3e
000001e0: addc 43be 78f6 85be b815 063d 5a25 233e
000001f0: 784b 763e 5cec 153e f952 b53c e6b3 6b3c
00000200: d2c5 7a3e 8c9f 803e 592d 48be 34ed 7bbd
00000210: 2a7a 443d 3bf4 4abe d91e 793e 25a4 a43e
00000220: bad0 13bd 3094 813d a9e2 223e ca61 afbd
00000230: 1a5c 68be 28e3 aabe 42fc 15bd 2369 4cbe
00000240: 7f79 313e 8b38 fe3d 0517 f3bd 7f55 b7bd
00000250: 65ac 823d 4bf0 cd3d 78c9 9cbd 0f56 70be
00000260: fd69 8f3d 2ed2 65be 71d8 0abe 37ea a23d
00000270: 95f6 ebbd 00a6 08be 1778 9dbd 318b 913d
00000280: 2917 2e3d abba fbbc 4352 dcbd 97b8 013e
00000290: 4eb5 23be b57c 31bd 6312 443e bd9d d03d
000002a0: 5444 bcbd 2a77 2d3d dd36 da3d 28e2 753e
000002b0: 5b02 7f3e d772 1a3e 2b96 593e 76fb f13d
000002c0: 5e23 56be d7ee 933e b54e 183e 0e44 843e
000002d0: 69c8 333e f1f2 adbd b0aa 34be f63f 623e
000002e0: 604d 313d 24e8 19be 8935 08be bef1 5e3d
000002f0: 16df 423d 9329 a83c 4883 8dbd 3f8a debd
00000300: 3a88 88be 6c1e 5fbb 8ef3 2e3d f2b8 f23d
00000310: f569 f6bd 57de 7c3e bb1e cd3d df78 2cbe
00000320: 04ea 81be a7da 233e aa03 61be bd38 4f3e
00000330: 16c1 aabc 3e10 713e f92b 513e 24a0 f13c
00000340: cacb 873d 6858 0dbe 9719 07be 7269 3d3e
00000350: cda2 2ebe 90e0 c13d 91be cc3d 2e9b 46bd
00000360: 6e8a 10be cda5 8a3e 5706 883e 3e47 9fbd
00000370: 322c 4fbe dc71 89bd ce05 b03d 543d 83be
00000380: dec6 9dbe ad5a 6f3e 508e 313e 6034 8b3d
00000390: 3d74 3c3e bb8c 3fbe afe1 11bd acf9 0b3e
000003a0: 5d5e 5b3e e3de 443e 1cc7 8b3e 66a8 57be
000003b0: 69a6 6a3e b04d 5e3e 43e8 893d 9a4b abbe
000003c0: ccf0 03be aec7 19be a447 c0bd 0108 443e
000003d0: 2289 1d3e 1f4d c9bd 837f ccbd 7942 253e
000003e0: 1adc 0fbd b6e5 433e d6fa 833d f84e e03d
000003f0: b512 5fbd f49e 723e f2e3 2cbe d31f 7ebd
-0.32481927 -0.2156121 -0.13393913 0.07295623 0.0369006 0.07206019 0.04844146 -0.31705946
0.13430175 0.21429396 0.07691136 -0.20087239 0.19069484 0.0592329 0.24770072 0.10685086
0.113657564 0.14285202 0.19245577 0.21608932 -0.27736124 -0.17163844 0.16804805 -0.20863041
0.12227561 -0.25115296 -0.2555978 0.15838642 0.06760298 -0.18521833 0.24423765 -0.18358326
-0.16353182 -0.27511942 -0.010473281 0.19062859 -0.10204847 0.24813479 -0.27007928 0.13369854
0.010800517 -0.10156183 -0.35060126 0.10139818 0.19203492 0.19555174 0.21243331 0.05685364
-0.07272343 0.03379767 -0.28230676 -0.27192846 -0.14319229 0.20275146 0.12074324 0.15819405
0.14844248 0.061304905 0.10957742 0.039448332 -0.1526745 -0.13327035 0.0018465994 -0.26624358
0.18754713 -0.06273158 0.08842473 -0.054604407 -0.3623877 0.11709805 -0.072964 0.0962669
0.14672045 -0.21602055 -0.30162597 -0.25507104 -0.08056173 -0.014684115 0.25944287 0.040545925
0.10314441 -0.2688092 0.05876516 0.21488294 -0.07499526 -0.14880346 -0.058393035 -0.0533152
-0.028687965 0.14884704 0.043256953 0.025060927 0.04387003 0.02444483 -0.11750264 0.24617341
-0.054530967 0.07936278 0.036981918 -0.17992963 -0.3067303 0.11564248 -0.19153029 0.071690775
0.18807031 -0.12462142 -0.06033891 -0.16858855 -0.34477878 0.08495215 -0.047740225 -0.11426295
-0.031359337 -0.07779184 -0.08385098 -0.106416956 -0.2164608 -0.011974267 0.27287015 0.13590215
-0.1912715 -0.26164603 0.032735556 0.15932217 0.24052227 0.14640945 0.022134291 0.014386153
0.24489525 0.25121725 -0.19548549 -0.06150551 0.047968067 -0.19819729 0.24328174 0.32156482
-0.03608773 0.06327093 0.15906776 -0.08563574 -0.22691384 -0.3337643 -0.036617525 -0.19961981
0.17331503 0.124131285 -0.11869625 -0.08951854 0.06380538 0.10055598 -0.076556146 -0.23470329
0.070026375 -0.22443458 -0.13559128 0.07954829 -0.11521641 -0.13344574 -0.07688921 0.07106627
0.042502556 -0.030728659 -0.10757878 0.12668072 -0.15987131 -0.04333182 0.19147639 0.10186336
-0.0919272 0.04234997 0.106549956 0.24012053 0.24903242 0.1508287 0.21248691 0.118155405
-0.20911929 0.28893158 0.14873774 0.25833172 0.17556919 -0.08493603 -0.17643237 0.22094712
0.04328668 -0.15029961 -0.13301672 0.054429762 0.047576033 0.020527637 -0.069098055 -0.10866212
-0.26666433 -0.0034045232 0.04271274 0.11851682 -0.120319284 0.24694191 0.10015627 -0.16842984
-0.25373852 0.16001378 -0.21974054 0.20236488 -0.020844024 0.23541352 0.2042693 0.029495306
0.066306666 -0.13803256 -0.13193356 0.18497255 -0.17054291 0.0946666 0.09997285 -0.048487835
-0.14115307 0.2707962 0.26567337 -0.0777726 -0.20231703 -0.0671117 0.08594857 -0.25632727
-0.30815786 0.23374434 0.17339444 0.06797099 0.18403716 -0.18706028 -0.03561562 0.13669461
0.21422715 0.1922565 0.27300346 -0.21060333 0.22915043 0.21709323 0.067337535 -0.33456117
-0.12884825 -0.15017578 -0.09388664 0.19143678 0.15384343 -0.09829163 -0.099852584 0.16138639
-0.035122015 0.19130597 0.064443275 0.10952562 -0.0544612 0.23693448 -0.16883829 -0.06204207

net.0.bias f4 [32]
00000000: 9a01 33be ce73 f2bd 9231 393e c1aa 223e
00000010: 7fa5 853d 1260 743d d4b7 b63d 7651 0fbe
00000020: be0a 12bd 3fbe 15be c6f0 293e 7f0c 86be
00000030: be84 043b c54c 89bb af36 79be 927d 903e
00000040: 4e61 8fbe 53f1 903d 1c66 e6bd dca0 433e
00000050: 84a3 0b3e 7264 8f3e 51fa 943e baf3 753d
00000060: b44c 7a3e e20f e9bc a48f f1bd 003b 0ebc
00000070: 6480 083e 31cf 733e e94f dfbd c273 ff3d
-0.1748108 -0.11838494 0.18085316 0.1588545 0.065257065 0.059661932 0.08921781 -0.13995919
-0.035654776 -0.14623354 0.16595754 -0.2618141 0.0020220722 -0.00419006 -0.24337266 0.28220803
-0.28003925 0.07077279 -0.112499446 0.19104332 0.13636595 0.2800632 0.29097226 0.06004689
0.24443322 -0.028449956 -0.117949754 -0.008681059 0.13330227 0.23809506 -0.109039135 0.12473251

net.2.weight f4 [32]
00000000: c1bb 833f e692 803f 2f0d 883f 466c 7a3f
00000010: ca0f 813f 4d24 853f 8766 743f 2da8 733f
00000020: c053 853f 1b96 6d3f fc12 6f3f 6773 873f
00000030: 9b7c 743f 08e8 813f 00e6 6e3f e578 833f
00000040: d2ac 763f 8e4d 823f 6b67 853f 1591 833f
00000050: bf1e 7a3f fda9 863f ae3a 833f fa57 893f
00000060: b9e0 763f 878c 843f 4c26 813f 831e 743f
00000070: af12 8a3f 1fc9 7a3f 2174 753f 1d59 743f
1.0291673 1.004483 1.0629023 0.9782146 1.0082943 1.0401703 0.95468944 0.9517849
1.0416183 0.9280717 0.9338834 1.0582093 0.9550263 1.0148935 0.933197 1.0271269
0.9635745 1.0179918 1.0422186 1.027865 0.97703165 1.0520626 1.0252283 1.0729973
0.9643665 1.0355386 1.0089812 0.9535906 1.0786952 0.97963136 0.95880324 0.95448476

net.2.bias f4 [32]
00000000: e404 35bd c9ea b0bd e61d 45bd 6d89 d03c
00000010: 1ed7 77bc 7c59 81bd 266c 9a3c 3ad3 103b
00000020: e589 b7bd 5897 8f3d a753 d73d 4b57 79bd
00000030: 9381 36bd b42a a6bd 02df c4bd f198 9ebd
00000040: 76e9 8dbd a0ce c9bc 21de 74bd b7e3 9bbb
00000050: 41e1 9bbd 35b0 08bd 03b0 4dbd 7d59 32bd
00000060: 62d3 a2bc 9c86 92bd 7121 8bbd d45f 17bc
00000070: 2bf9 4ebd 1741 2ebc e0d6 8ebd e4de 063d
-0.044194117 -0.08638532 -0.048124216 0.025456155 -0.0151269715 -0.06315896 0.018850397 0.0022098557
-0.08961848 0.070112884 0.10514002 -0.060874265 -0.044557165 -0.08113614 -0.09612848 -0.07744015
-0.06929295 -0.02463466 -0.05978215 -0.0047573703 -0.07611323 -0.03337117 -0.050216686 -0.043542374
-0.019876186 -0.07154581 -0.06793488 -0.009239156 -0.050530594 -0.010635636 -0.06974578 0.03292741

net.2.running_mean f4 [32]
00000000: f889 9a3e d44a 353e 8c95 be3e a4be dd3e
00000010: 841d 8a3e b0e7 a23e 622a 723e 576c b83e
00000020: e563 c53e fab1 8f3e 9060 a53e 45d5 fd3d
00000030: c9ae 1e3f 48b4 5d3e efb9 393e 3f67 ee3e
00000040: 99c7 913e 829a d63e f770 483e 0d94 fe3e
00000050: 3c74 0a3f de70 ff3e 3e9e f43e cc8c 5c3e
00000060: 177f ce3e bae5 4e3e 3d12 123f 4394 af3e
00000070: 463b 9e3e c42d a83e 134e df3e 7d8a d63e
0.30183387 0.17704326 0.3722347 0.4330951 0.26975644 0.3181739 0.2364898 0.36020157
0.38552776 0.28065473 0.32300234 0.123941936 0.6198545 0.21650803 0.18137334 0.46563146
0.28472593 0.41914755 0.19574343 0.4972233 0.5408361 0.49890798 0.4777698 0.21538085
0.40331337 0.20204821 0.5705908 0.34292802 0.30904597 0.32847416 0.43614253 0.41902533

net.2.running_var f4 [32]
00000000: 6f01 3c3e f761 603d 6cd5 203e e0bf 943e
00000010: 9413 b43d be74 043e ac34 b33d 5d24 7f3e
00000020: 7922 953e 2007 1f3e a42d 0c3e d91b 2d3d
00000030: 5b5c 1c3f c883 bb3d 56f0 8c3d 1648 6b3e
00000040: 6524 3e3e f8c8 983e ade5 8b3d 410e 903e
00000050: 58de e93e 8f37 753e dd73 673e 62cf 723d
00000060: bf71 793e c213 7c3d ef60 063f beda 4d3e
00000070: 3511 eb3d 44fe be3d ca4c b23e fc7b 8e3e
0.18359922 0.054780927 0.15706414 0.2905264 0.08792797 0.12935159 0.08750281 0.24916215
0.29127863 0.15530062 0.13689286 0.042262886 0.61078423 0.09155995 0.06881778 0.22976717
0.18568571 0.29840827 0.068309166 0.28135875 0.45677447 0.23946975 0.22602792 0.059279807
0.24359797 0.06154228 0.5249166 0.20102975 0.11477891 0.09325841 0.3482421 0.27828968

net.3.weight f4 [64, 32, 5]
00000000: 2ed0 a23c 4b40 983d 7ee6 97bd 9df8 d0bc
00000010: 1ce4 2bbd 4732 df3b 3b8c a2bd 916e 803d
00000020: f4fb 76bd 5cf7 39bd 897a 52bd 0cfa 00be
00000030: fa4b bd3c 3293 9c3b c5cd 8f3d ca69 2a3e
00000040: 4f47 173c cdd8 49bd 55bb 0d3d 7b82 9dbc
00000050: 269a 5bbd dc72 bc3c 5d33 493c 059f 29bd
00000060: 2e9a b43c 03a0 11be 9af3 fcbd ef35 48bd
00000070: 63f3 673c 79a3 e6bb 6c2f 2dbc dd87 ab3d
00000080: 822c d83b ea7a 4d3d cced 1ebd 133e 303c
00000090: 7e89 9cbd 34f5 5fbd 05dc 8cbd 7688 753d
000000a0: c996 bfbc 8ef3 25bd 3ee0 8bbc 929a 98bd
000000b0: 86f8 6bbc 0e8d bdbd 9752 6bba 504c 2d3d
000000c0: dfe5 2abd d98d 50bd 4ebf e53c d167 523d
000000d0: 9096 b03c 33b4 b03d 5f4f 07be 6658 f53b
000000e0: 2c69 213d a829 8abd a58d 93bd 0d07 1fbd
000000f0: a56f 6dbd 67d8 83bb c977 e43b cd3a 853d
00000100: 4384 123d c978 a03c 0854 c63c e628 80bd
00000110: b1db 88bd 7e22 db3d 4504 0bbe 8c22 6bbd
00000120: a331 31bc 24e8 d1bc a3a3 9bbc 0ebc 95bd
00000130: 57cc c3bd 72ca 913d bdc0 893d 95a8 f0bb
00000140: b958 7bbc 1c2a b1bd ad34 883c 33e8 83bc
00000150: da85 a6bd daeb c93d df95 ec3c a8b6 383d
00000160: bd9d a13b 25ff 25bd 996c 46bd 1e21 b9bd
00000170: 478a 983b 6955 2f3d f318 783d 08ff 26be
00000180: 7394 0fbd f928 9e3c 55f0 123c 3fe8 1a3d
00000190: 2db6 8a3d 88f4 25bd fea7 013d 3cf7 9ebd
000001a0: 45ec f53c cc54 71bd 0d11 94bd 4535 00be
000001b0: 8cd7 553d efd7 02bd fbee 183b caa1 28be
000001c0: 7669 53bc 4081 523c 3419 33bd 4c51 92be
000001d0: 5a36 55be a05f a4bd fccb c7bd 2c47 9bbc
000001e0: 50c5 82bd 68fc 97bc 57a3 543c bf5d adbc
000001f0: 0e81 843d dc61 aebd 174c 6dbd 30fd 1d3d
00000200: 93ca 0f3d 9673 d73c 0f92 13be d413 99bc
00000210: bf1f 603c d738 173d ecf2 03bd 1708 61bd
00000220: aeee df3d 8fee cabd 64fc f4ba 22e5 823d
00000230: b1f4 05be cc36 87bd 0654 9cbd 6ac7 0f3c
00000240: f91a 90bd 6c06 11be d430 88bd f092 f33c
00000250: ed97 bdbd efa6 803d 340b c7bc 8fe4 f2bc
00000260: 08c2 903d 7085 29bd 6aa4 a6bd 38fe 1abd
00000270: 3c28 afbd 6b86 83bd e218 b73c 1b8a 783d
00000280: bc4d c9bc 6b1e 80bb 00fb 81bd 270d cdbc
00000290: 1b34 a2bd a8ec 63bd 2217 a8bc 3437 a3bd
000002a0: f138 8a3c 39dc 61bd 5ebe 063a be63 3d3c
000002b0: 8ff2 a93d fdba ec3d c1a9 44bd 6126 433c
000002c0: 222b 07bd ebc5 cf3c 096a f4bd 14b6 07be
000002d0: f37f 17bd 1e7e 993c 2f83 ed3c 6ded b4bb
000002e0: fee1 103d 4971 d9bd f5a3 8b3d d319 9bbd
000002f0: 0256 9d3d 5144 bf3d 7ac4 143c 79e7 17bd
00000300: 7b7d a2bc 2811 d2bd 9245 9fbc 9948 983c
00000310: aeed 053d 1958 47bd 0cad 2bbd 25fc 3a3d
00000320: ba71 98bd 76c3 eabd d8c5 0fbe 1d19 a6bd
00000330: 1363 a0bd 1648 7a3b ad25 59bb fdcd 353d
00000340: 1ad4 d5bd b8d0 c5bd 02f6 433d 3293 483d
00000350: 38fd 30bc 8abf 193c 4427 f03c 19ed 77bd
00000360: c7b6 dbbd 45eb eabd 3ebc bebd 37af 95bd
00000370: 1c62 983c c4eb b3bd 9b27 d63c 6a5e 9abd
00000380: 8350 17be 7a9c 2dbd 1c9f b8bd bb23 223c
00000390: 02fe 50bc 2d3a 2a3d 1f56 c3bb f83e debd
000003a0: ff7e d13c 33c1 74bb 519d 04bd d0a6 34bc
000003b0: bfb3 89bc 978c a73d 73c8 8dbd 61f6 0e3d
000003c0: 2cf3 06be e94e 37bd d282 b1bd d12d 103d
000003d0: 8a78 a1bd 41d8 6cbd abce 563c 239d 8cbd
000003e0: 3077 edbd ad23 343c 5a2b b9bc 6713 cabc
000003f0: 0551 3b3d 8093 f3bd c454 5f3c e0b1 1f3d
0.019874658 0.07434138 -0.0741701 -0.025509173 -0.04196559 0.0068114134 -0.07936903 0.06271089
-0.060298875 -0.045401916 -0.05138639 -0.12595385 0.023107518 0.0047782892 0.07021669 0.16641918
0.00923331 -0.049279023 0.034602482 -0.019227257 -0.053613804 0.023003988 0.012280312 -0.04141142
0.022046175 -0.14221196 -0.12351151 -0.04887956 0.014157149 -0.0070385304 -0.010570388 0.08375523
0.0065971026 0.050166048 -0.038801 0.010756987 -0.07643412 -0.054677203 -0.06877903 0.059944592
-0.02338733 -0.040515475 -0.0170747 -0.07451357 -0.014402514 -0.0925542 -0.00089768454 0.042309105
-0.04172313 -0.050916526 0.028045323 0.05136854 0.021556169 0.0862812 -0.13213871 0.0074873446
0.03940694 -0.067462265 -0.07204751 -0.038825084 -0.0579678 -0.0040236 0.0069722873 0.06505356
0.035770666 0.019588845 0.024209991 -0.06257801 -0.06682528 0.10699938 -0.13575847 -0.057405993
-0.010815057 -0.025623389 -0.018998927 -0.07311259 -0.09560459 0.071186915 0.06726215 -0.0073443153
-0.015340977 -0.0865061 0.01662668 -0.016101932 -0.08130999 0.09859438 0.028880058 0.04509607
0.004932134 -0.040526528 -0.04844341 -0.0903952 0.004655156 0.042806063 0.06057067 -0.16308224
-0.03505368 0.019306647 0.008968432 0.037819143 0.067730285 -0.040516406 0.03165435 -0.07762
0.030019889 -0.05891876 -0.07229815 -0.1252032 0.052207515 -0.03194421 0.0023335803 -0.16467968
-0.012903562 0.012848198 -0.043725207 -0.2857765 -0.20821515 -0.080260515 -0.09755704 -0.018954836
-0.063852906 -0.018552974 0.012978396 -0.021162866 0.06469928 -0.08514759 -0.057933893 0.038571537
0.0351053 0.026300233 -0.14411186 -0.018686213 0.013679444 0.03691944 -0.03221409 -0.054939356
0.109341964 -0.09908783 -0.0018690941 0.0639136 -0.13081624 -0.066022485 -0.07633214 0.008775571
-0.070363946 -0.14162606 -0.06649938 0.029733151 -0.09257493 0.0628184 -0.024297334 -0.02965
0.070682585 -0.04138702 -0.08136828 -0.0378401 -0.08552596 -0.064221226 0.022350732 0.060678583
-0.0245732 -0.003909876 -0.063467026 -0.025030686 -0.079200946 -0.055645615 -0.020518843 -0.079695135
0.016872855 -0.05514166 0.0005140061 0.011559425 0.082982175 0.11559103 -0.048013452 0.011911006
-0.03300012 0.02536293 -0.11934287 -0.13253051 -0.036987256 0.018736895 0.028993217 -0.0055214674
0.035371773 -0.106173106 0.06818382 -0.07573285 0.0768242 0.09339202 0.009080047 -0.037085984
-0.019835224 -0.102571785 -0.019442353 0.018589305 0.032697372 -0.048668 -0.041913077 0.04565062
-0.074435666 -0.114630625 -0.14040315 -0.08110259 -0.07831397 0.003818994 -0.0033134029 0.0443859
-0.10440846 -0.096589506 0.047842033 0.0489685 -0.01080256 0.009384045 0.029315598 -0.06052885
-0.107282214 -0.11470655 -0.09313248 -0.0730881 0.01860147 -0.08785203 0.026141932 -0.07537539
-0.14776807 -0.042385556 -0.09014723 0.009896214 -0.012755873 0.041559387 -0.005961194 -0.10851854
0.025573252 -0.00373466 -0.03237659 -0.011026099 -0.016809342 0.08181112 -0.06922998 0.034902934
-0.131787 -0.04475299 -0.0866753 0.035199944 -0.07884319 -0.057823423 0.013110797 -0.06865909
-0.11594999 0.010994834 -0.02260368 -0.024667455 0.045731563 -0.11893368 0.01363105 0.038987994

net.3.bias f4 [64]
00000000: 5954 75bc e783 c63d a627 fbba 6d42 a23c
00000010: 0d56 e9ba c1a0 a4bc 26bd 143e 3dc1 533d
00000020: b6d0 173d 233a 6c3d 1518 913d 0ec9 bb3d
00000030: 9b48 873d 6535 053d 3f6a 293e 5d00 033c
00000040: e602 a63d b5b1 ec3d 5181 293d 60f1 1b3d
00000050: 9cb0 33bb 9bd0 e63c c4aa 7c3d 7470 6d3c
00000060: e071 be3c 6f38 ee3d 606d 043e a32f ea3c
00000070: 463c 103d 87c0 9b3d c3e9 153d 092e d83d
00000080: 264c cb3d b767 8a3d 4447 8abd 0ce1 033e
00000090: 16c8 1d3c 6816 fb3d 4eb1 0e3e c804 2ebd
000000a0: 88d8 bfbb 3356 043e 09d4 b03d 23bd c73d
000000b0: c955 ee3d 3ca9 653d 4849 043e e125 e03d
000000c0: 80bd 6c3d b569 61bd 1db0 f13d b293 373d
000000d0: c5cb 423c 35b8 9a3d b549 203c 6c26 d13d
000000e0: c84b 8a3d ae8c fa3d 3529 1c3e ea2b da3d
000000f0: f1ce 66bc aa75 f33d 0409 9e3d fddb 31bc
-0.014973723 0.09693127 -0.0019161596 0.019807065 -0.0017802134 -0.020096185 0.1452528 0.05169796
0.037064277 0.05767263 0.070846714 0.091692075 0.06605645 0.032521624 0.16544436 0.007995692
0.081060216 0.115573324 0.04138309 0.03807199 -0.00274185 0.028175643 0.061686292 0.014492143
0.02324766 0.116318576 0.12932348 0.028587168 0.03521373 0.07605081 0.036599886 0.105556555
0.099266335 0.06758063 -0.06751874 0.12878817 0.009630224 0.12260133 0.13934824 -0.04248503
-0.00585467 0.12923507 0.086341925 0.09752872 0.11637456 0.056069598 0.1291858 0.10944725
0.05779791 -0.05503245 0.11801169 0.044818588 0.011889403 0.07554666 0.009783198 0.102124065
0.067527354 0.12233864 0.15250094 0.10652907 -0.014087425 0.11887677 0.07716563 -0.010855672

net.5.weight f4 [64]
00000000: 6348 883f eef4 893f 8572 893f d370 893f
00000010: 9577 883f ec21 8a3f de0f 893f 42ca 893f
00000020: 1617 8a3f 502b 8a3f cfc0 893f a6bb 883f
00000030: a36c 893f dee3 8a3f 4877 893f aad4 883f
00000040: 6891 883f 0d45 893f 9cfa 883f 6a32 8a3f
00000050: ea4d 893f ed34 8a3f 17f5 883f 23db 893f
00000060: e869 893f a461 893f d51a 8a3f 1ecf 893f
00000070: 800c 893f 6710 893f 9ad6 883f e6ed 893f
00000080: 65a2 8a3f e216 8a3f 7dd3 883f 0747 883f
00000090: 41e1 893f 35f3 893f 4faa 893f 3fe2 893f
000000a0: 19ee 893f cbd8 883f 1b35 8a3f 1151 893f
000000b0: c361 873f c419 893f cd30 893f 5d8b 893f
000000c0: fb22 893f ae60 893f 1677 883f a70a 893f
000000d0: 846e 893f 7b71 893f b6f1 893f 4dd4 883f
000000e0: 6623 893f 8efe 893f 511e 893f 3c12 8a3f
000000f0: 9531 8a3f aa3f 893f 818a 8a3f 2b1b 8a3f
1.0647091 1.0777872 1.0738074 1.0737556 1.0661494 1.0791602 1.0707967 1.0764849
1.0788295 1.0794468 1.0761966 1.0682266 1.0736278 1.085079 1.0739527 1.06899
1.0669374 1.0724198 1.070148 1.0796635 1.0726902 1.0797402 1.0699795 1.077
1.0735445 1.0732923 1.0789438 1.0766332 1.070694 1.0708131 1.0690491 1.0775726
1.0830809 1.0788233 1.0689541 1.0646676 1.0771867 1.0777346 1.0755099 1.077217
1.0775787 1.069116 1.0797457 1.0727865 1.057671 1.0710988 1.0718018 1.0745655
1.07138 1.0732629 1.0661342 1.0706376 1.0736852 1.0737756 1.0776889 1.0689789
1.0713928 1.0780809 1.0712377 1.0786815 1.0796381 1.0722554 1.0823518 1.0789541

net.5.bias f4 [64]
00000000: 0aa2 92ba 6808 7c3d 2af6 e83c bc65 fb3c
00000010: dc11 7e3d 570f 513d e8c0 453d c5b9 8b3d
00000020: 8aca 763d 1b03 923d 0ffa 803d 271c b13c
00000030: 2aa2 c03d dd9b 5f3d f62d 813d 4761 713d
00000040: 6484 613d f9bf 783d 76ef 2c3d 9378 763d
00000050: c7f7 793d 25fd b13d d9be 583d 76ad 9a3d
00000060: 1450 b93d 9502 713d 4969 8b3d 9ba9 913d
00000070: 5e65 9b3c 0b55 823d 25fc 833d ff07 453d
00000080: 6eca 373d 2def ad3d 2a56 be3c c9c8 d23c
00000090: 1392 703d 26ca 763d 1732 613d 56f3 853d
000000a0: 2c73 8a3d 806f 9dbc 6683 7a3d b5d0 963d
000000b0: f0ad 283d bfc6 863d 2d96 653d 6eb4 863d
000000c0: bf28 013d 106f 333d a4ff f43c 5474 ad3c
000000d0: 5ff2 223d b0c4 5e3d 0c78 893d 15ca 493d
000000e0: 5504 7b3d 2d40 703d d5f2 bc3c bd64 c83d
000000f0: bc5b b83d f3cd 883d 3776 933d 9d8e 463d
-0.0011187207 0.061531454 0.028437693 0.03068816 0.06202875 0.05104002 0.048279673 0.06822542
0.06025175 0.071294986 0.06297695 0.02161987 0.0940593 0.054592002 0.063075945 0.05893066
0.0550579 0.060729954 0.042220555 0.060173582 0.061027315 0.086908616 0.05291638 0.07552616
0.09048477 0.058840353 0.06807191 0.07112428 0.018969234 0.06363877 0.06444577 0.04810333
0.044870786 0.08492885 0.023234446 0.025730507 0.058733057 0.060251378 0.05497941 0.06540553
0.067602485 -0.019218206 0.061160468 0.073640265 0.041181505 0.065808766 0.056051422 0.06577383
0.031533 0.04380709 0.029907055 0.021173634 0.039781924 0.054386795 0.0671235 0.049264986
0.06128343 0.058654953 0.02306501 0.09784839 0.09001872 0.06679907 0.07200282 0.04847585

net.5.running_mean f4 [64]
00000000: 5b4a a43f 9c70 9a3f 13ed 223f 5b82 ab3f
00000010: 791e 643f 49cf 2c3f 7110 963f e237 0d3f
00000020: 1f87 9e3f 9bc5 393f b7ca b43f 9b29 8b3f
00000030: d82c 5b3f 668c 3a3f de0e 9e3f 51c3 873f
00000040: 1ddd c43f e43a b63f 8efe cb3f 986e c63f
00000050: b9cc 583f fd48 4f3f 3a63 a33f 1d23 843f
00000060: 0934 893f 8424 983f e3db 9c3f 1746 8d3f
00000070: 4539 9e3f cd04 8d3f 5101 9f3f ec9a c13f
00000080: 7450 843f e314 9f3f 37c2 8f3f 7e55 b93f
00000090: ae21 913f d1d1 ae3f 46c6 9f3f 9494 943f
000000a0: b3ff 943f c990 983f b8b6 ac3f c1c4 943f
000000b0: 664d 8f3f ee32 a03f 011d a03f 38bf aa3f
000000c0: d839 943f 351d 3b3f 21fd c13f 370d ba3f
000000d0: 365c 8c3f 0df8 5a3f c29d ad3f 4b6e 793f
000000e0: ecf1 dc3f e4e3 e23f 524e 923f 52a5 b23f
000000f0: 8a33 683f c580 8d3f 56c8 873f 701d 843f
1.2835191 1.2065616 0.63642997 1.3399156 0.89109 0.6750379 1.1723768 0.55163395
1.2384986 0.72567147 1.4124364 1.0872072 0.856153 0.7287048 1.2348287 1.0606481
1.5379978 1.4236722 1.5937059 1.55025 0.8468738 0.80970746 1.2764657 1.0323216
1.0719005 1.1886144 1.2254604 1.1037015 1.2361227 1.101709 1.2422277 1.5125403
1.0337052 1.2428249 1.1231145 1.4479215 1.1338403 1.3657781 1.2482383 1.1607842
1.1640533 1.1919185 1.3493261 1.1622545 1.1195495 1.2515543 1.2508851 1.3339605
1.1580153 0.7309144 1.5155374 1.4535283 1.096564 0.85534745 1.3563769 0.9743392
1.7261329 1.7725797 1.1430151 1.3956702 0.9070364 1.1054922 1.0608013 1.0321484

net.5.running_var f4 [64]
00000000: 5f65 1c40 3822 e73f 41d5 793f 9293 1140
00000010: cd0d b73f 6ad6 7a3f 754b d63f 4e7f 1d3f
00000020: 6762 1340 270b 543f 8b0b 3740 691c cd3f
00000030: 13ee 933f 6e26 1f3f e9e9 0b40 16e3 c23f
00000040: 768f 2c40 27d7 0f40 3633 4f40 947e 3740
00000050: cf7c 8c3f de17 703f c66d 1c40 81e0 a53f
00000060: 354f d13f 128a 0340 9028 0040 c8f3 c63f
00000070: 3a89 1a40 a6d3 c73f 8fb4 1340 cd3c 4540
00000080: 2042 9f3f dc42 f03f dc35 0440 18a6 3f40
00000090: bd45 0040 780c 0e40 5156 1340 00b4 fa3f
000000a0: 5110 0540 0e12 f03f 6328 2740 9dd9 d33f
000000b0: edca 0040 0231 0840 6603 f43f 9460 1740
000000c0: e091 e83f 3cd4 493f 13af 1e40 c2d1 4740
000000d0: 2983 fb3f 38eb a13f 3b97 1140 c9c0 b33f
000000e0: 1334 7640 f646 8540 adcc cf3f 4889 2b40
000000f0: f3bc 993f 1b47 ca3f 584d ad3f ed97 cd3f
2.4436872 1.8057318 0.97591025 2.274632 1.4301087 0.9798342 1.6741778 0.61522377
2.302881 0.8282952 2.8600795 1.6024295 1.155703 0.62168014 2.1861517 1.5225551
2.6962562 2.2475069 3.2375007 2.8671007 1.0975589 0.9378642 2.4442 1.2959138
1.6352297 2.0553021 2.0024757 1.5543146 2.4146256 1.5611465 2.3078954 3.081836
1.2442055 1.8770404 2.0657873 2.9945126 2.0042565 2.219511 2.3021433 1.9586182
2.0791209 1.875551 2.61184 1.6550785 2.0123856 2.1279912 1.9063537 2.3652697
1.8169518 0.7883947 2.4794357 3.1221776 1.9649402 1.2649908 2.2748554 1.4043208
3.8469284 4.164912 1.6234337 2.680254 1.2010788 1.580295 1.3539228 1.6061989

net.7.weight f4 [128, 64, 3]
00000000: 0b11 063e 5555 fd3c 9041 183d ef41 1abc
00000010: d787 0f3e 3574 153c 17d4 a63d 31cc ffbd
00000020: 2b95 fdbd 4e57 99bb 4b85 4b3b 4516 e93d
00000030: a6ed 0c3d 3390 92bd 2d59 f3bd 2881 fa3d
00000040: a807 0cbe 1c21 a9bd 0152 ec3c 0340 f3bc
00000050: cefd b1bd 7f84 3dbc b7c9 823d 1efd 913d
00000060: d64f 053e 0f29 f23d 6bda 8b3d 8afa a1bc
00000070: e917 4b3d 49ad c43d aaa2 8f3d b971 893d
00000080: 5187 c23c 9bea 4c3d 8dc0 013e 84fb ca3d
00000090: a7a6 b8bc c817 69bd b7a4 183e 5568 a0bd
000000a0: a9be 353d 8851 a03d 4632 653d 82b3 da3d
000000b0: 952b 503b 0ac9 893d 9b39 a63d 525f d23d
000000c0: e8ae 033e 0f14 113d 303a c3bd 1a13 ae3d
000000d0: 55a0 143e 251e fabd 3460 343d dc15 e73d
000000e0: 0b46 2fbd 0ef8 6d3d 93f0 fe3c af8b 0abe
000000f0: 2b15 f8bd a222 0cbe 237a ee3c 19fa b1bc
00000100: cbef af3d fe55 e63d d88d 283d 9566 a33d
00000110: 3691 943d 6aca 93bd 7ae1 483d 74bf f93b
00000120: 4b2d 14bd f85a 9d3c cd1a 083e 2c26 f13d
00000130: 9d14 d8bc 34c5 e2bd 66bb 463d 9f54 083e
00000140: 0cec a5bd cac3 103c 46a0 873c 5421 c93d
00000150: 66b3 9e3d 4fe2 b9bd 1f49 f9bd 1848 733d
00000160: d95a 4c3d de26 013e cf25 f73d b489 be3d
00000170: eff5 1a3d 1cca cf3d 40ef 88bc 1a78 bebd
00000180: fb9d df3d 5024 37bd 18b2 9b3c 879d 06bd
00000190: 936a 053e 5bcb a63d beda ef3b f215 143e
000001a0: a7b1 c33d e20a c43c 517a d73d f137 7a3d
000001b0: e8aa 0c3e c258 a63c f287 2c3d 3085 733d
000001c0: d28e dc3d 6aaa d5bd 3bc3 623d 3203 7ebd
000001d0: a498 72bd bc1b be3d 1bd4 823c 29cd ae3d
000001e0: dc49 143c 729c bb3d 0e8c ba3d 6ead 1f3d
000001f0: 8b89 19bc d800 f7bd 9948 0c3e 9ac6 7a3c
00000200: d36b 913d 53b5 5c3d 1c62 8e3d 07f8 a53d
00000210: 1fbc dbbd 4a44 96bd 399b 533d d46b fdbd
00000220: 084c 42bd 2412 1b3d 5d6f 5d3d 5d69 f6bc
00000230: 9ad1 eabd 8475 0f3e e6fb 4e3d 460c 9cbd
00000240: e1b7 603d 904b 2d3d a9eb 433d 9fdd e33c
00000250: 8b16 a03d 6685 8c3d e9fd 0e3d 9366 52bc
00000260: bb6b fabd 35af f93d eeeb b73c dd50 46bd
00000270: 4296 ae3d 9a38 083d bef9 cf3d 66cf 173d
00000280: 2c74 c3bd 8dd2 cebd fb69 783d 1c0c d13d
00000290: 5281 e9bd ae01 ccbd 840b 5bbd 4d6e 993d
000002a0: 4a7f dd3c e728 ee3d 34dc 78bd 7c6f 8f3d
000002b0: cbd1 e43d d952 82bd d498 0eba 2bc4 05be
000002c0: 44db 3fbd ccc1 eebd d812 52ba 1f55 7e3d
000002d0: 2720 92bd 0002 06be c168 8b3d 3c5a e83d
000002e0: 0d22 7f3c b0a0 f03d c3e4 11be eba0 e63d
000002f0: 8d48 0d3e 0392 903d b75a d83d 378f f53d
00000300: 32ae e8be ee8d 8abe 6321 9abe a751 b33c
00000310: 212f 633e d486 e43e 638a 47be d067 81be
00000320: ff2d 90be f24b 87bc 03c5 713e d5b4 903e
00000330: 9e2c 67be 516a 85be 1db8 32be b6e1 043e
00000340: e548 ecbd c635 50be 8368 8ebe 314a 6dbe
00000350: 0f19 afbe e9e4 e5bd 7e27 cf3d d3f7 bf3e
00000360: ea15 ebbe 6767 a6be 8ae9 a0be 9a62 aa3e
00000370: f8c5 8a3e 10c4 b03e a7e0 a6be 535d 78be
00000380: 7a7b 98be cb91 5ebe 3e46 12be 5aa9 b4bb
00000390: d7aa 1f3e 314b 57bc 97e6 aa3d 7427 bb3e
000003a0: e789 a13e d721 b53e 34b1 00be acc4 07be
000003b0: 9076 89be bf46 f23d d39f 903e a070 c53e
000003c0: 978a 85be 2059 63be 078e 92be a0ca 77be
000003d0: 3cb4 a7be a9ea e5be daee 93be 2e6e 4abe
000003e0: e0c7 d1be bde7 d3be 7343 1bbe 47af 90be
000003f0: bc77 843e d375 b1bb a10b 4e3d 610d cb3e
0.13092439 0.030924479 0.0371719 -0.009415134 0.14016663 0.009121944 0.08145922 -0.12490118
-0.12381967 -0.004679597 0.003105479 0.11381201 0.034406327 -0.0715641 -0.11882243 0.12231666
-0.13674796 -0.08258268 0.028847696 -0.02969361 -0.086909875 -0.011567234 0.0638613 0.071283564
0.13018736 0.118242376 0.06828769 -0.019772787 0.04958335 0.09603364 0.070134476 0.06711144
0.023746165 0.050028425 0.12671109 0.09911254 -0.022540404 -0.056907445 0.14906584 -0.078324
0.04437128 0.07828051 0.055956148 0.1067877 0.0031764258 0.06727798 0.08116456 0.10272087
0.1285969 0.03541952 -0.09532583 0.08499737 0.14514287 -0.12212781 0.04403706 0.11283466
-0.042791408 0.05809789 0.031120574 -0.13529848 -0.121134125 -0.13685086 0.029110974 -0.021725701
0.08590659 0.112468705 0.041150898 0.0797855 0.07254259 -0.07216342 0.049043156 0.0076217
-0.036176007 0.019208416 0.13291474 0.11774859 -0.026377017 -0.1107277 0.04851856 0.1331353
-0.08101663 0.008835742 0.016555917 0.0982081 0.07749061 -0.09076368 -0.1217215 0.059394926
0.049891327 0.12612483 0.12067758 0.093036085 0.037832197 0.10145971 -0.016715646 -0.09300251
0.10918804 -0.044712365 0.01900582 -0.032865074 0.13028936 0.08144256 0.0073197773 0.14461496
0.09555369 0.02393097 0.10521377 0.061088506 0.1373707 0.020305995 0.042121835 0.05945319
0.10769428 -0.104328945 0.055361968 -0.062014766 -0.0592276 0.09282634 0.01597028 0.08535225
0.009050813 0.09160699 0.091087446 0.038983755 -0.009371172 -0.12060708 0.13699569 0.015306139
0.07100644 0.05388386 0.06952307 0.08103948 -0.107292406 -0.07337244 0.051661704 -0.12374082
-0.04743579 0.037859097 0.054061282 -0.030079538 -0.114657596 0.14009672 0.050533198 -0.076195285
0.05486286 0.04230839 0.047832165 0.027815638 0.078168 0.06861381 0.034910116 -0.012841838
-0.12227579 0.12191621 0.022451367 -0.04841696 0.08524753 0.033257104 0.101550564 0.037063025
-0.095436424 -0.10098753 0.060647946 0.10207388 -0.11401619 -0.09961258 -0.05347778 0.07491741
0.027038235 0.11628895 -0.060756877 0.07003686 0.11172827 -0.06363458 -0.0005439643 -0.13063113
-0.046839967 -0.116580576 -0.0008013672 0.062092897 -0.07135039 -0.130867 0.068070896 0.11345336
0.015572083 0.11749399 -0.14247422 0.112611614 0.13797207 0.070590995 0.105641775 0.11990207
-0.454454 -0.2706141 -0.30103597 0.02188952 0.22185947 0.44634116 -0.19486384 -0.25274515
-0.28160092 -0.016515706 0.2361031 0.28262964 -0.22575614 -0.26057675 -0.17453046 0.12976727
-0.11537341 -0.20333013 -0.2781411 -0.23172833 -0.34198806 -0.11225302 0.101149544 0.37493762
-0.45915157 -0.32500765 -0.31428176 0.33278352 0.27104163 0.34524584 -0.3259327 -0.2425435
-0.29781705 -0.21735303 -0.14284608 -0.0055133523 0.15592514 -0.013140486 0.08344763 0.36553538
0.31550524 0.3537738 -0.12567598 -0.13258618 -0.26848269 0.118299 0.28246936 0.3856249
-0.26082298 -0.22201967 -0.28623983 -0.24198389 -0.32754695 -0.44905594 -0.28893167 -0.19768593
-0.40972805 -0.4138774 -0.15162449 -0.28258726 0.258726 -0.005415657 0.05030406 0.39658645

net.7.bias f4 [128]
00000000: 2e44 f93c 64c7 e73d befb 443d c123 0f3c
00000010: a3e5 d73d 9b8c b23d c755 a93c f87a 653d
00000020: 7880 9b3c 1f41 073e 34c4 8cbd 5182 3c3d
00000030: 19d8 ee3b 3e48 253d f6b6 103d abdd e63d
00000040: 9d04 593d d48c c53c 6354 013e e1f2 9ab9
00000050: b6f0 033d 8a81 523d f538 413d da19 ec3d
00000060: cb8c 063e 5899 8b3d 3252 ab3c 58dd ac3d
00000070: 0bb3 c73d 9ee3 e73d 51ff ebbb 5584 0d3e
00000080: f401 37bc a2e2 e33d 3977 063c 8239 d23d
00000090: ba86 6e3d 73e7 aa3d cd38 6e3c b8c9 0e3d
000000a0: 1b06 bc3d e96b d23d ebcd 983d c1ab e73d
000000b0: 48e1 8f3d 1fc1 8abb c69e 5e3d 781e 123d
000000c0: 721a 933d 2839 333d b100 053e 51a7 b83d
000000d0: 84af c53d f52e 1abc bd87 d93c 8137 9a3d
000000e0: 62c9 633d 4b7b 8b3d 69b3 c23d c1fa b83c
000000f0: fa2f f5bb a443 d73c 16ed c83d dd29 053e
00000100: 9b54 af3c 18e6 1e3c 9dbb c43d 8da5 043e
00000110: 2870 47bc a333 ce3c 3979 d73d 0fdd 103e
00000120: b713 b23d b169 db3d a664 fd3c 451b 163d
00000130: b49e 7d3e d485 113d f8af aa3d f636 f03d
00000140: fcb8 823b 81f9 5b3d d88c 0f3e 41b2 963d
00000150: 96cd 3b3d 2dc3 323c e99c 893d c370 213d
00000160: 8d44 de3d c310 0d3d 4277 a73d 1795 f43d
00000170: 5438 833c 362e a13d b321 b13d 7098 bc3d
00000180: 52ea f73b 6621 b83d be1f e1bb cc0c 093e
00000190: 4196 fa3d 1b80 023e 7a63 ee3d 9d33 063e
000001a0: ebfa c33d cbf3 733b 7b09 f93d a4aa c83b
000001b0: f4b6 123e 4029 0a3b 0e8b 233d 56e9 913d
000001c0: fae6 613d 8fa3 0a3d 36dd 013d fe4d 923d
000001d0: f4db 983d 883a 7f3c c758 0b3d ff3d f33d
000001e0: d9b7 ba3d 9a55 39bb 47f3 8f3d 7b9a dd3d
000001f0: 55bb 2d3d e30f e43d e884 893d ec9f ad3d
0.030428018 0.113173276 0.048091643 0.008736552 0.105418466 0.087182246 0.020670785 0.056025475
0.018982157 0.13208435 -0.0687336 0.046022717 0.0072889444 0.0403521 0.035330735 0.112727486
0.052982915 0.024115004 0.12629847 -0.00029554128 0.03221198 0.05139307 0.04717346 0.11528368
0.13139646 0.068163574 0.020913217 0.084406555 0.097509466 0.113227114 -0.007202067 0.13820012
-0.011169899 0.11127211 0.008207136 0.10264875 0.058233954 0.08344927 0.01453991 0.034860343
0.09180852 0.102744885 0.07461151 0.11312056 0.07025391 -0.0042344476 0.054350637 0.03567359
0.071827784 0.04375568 0.12988545 0.09016288 0.096526176 -0.0094106095 0.026553983 0.07530118
0.055611975 0.06810626 0.09506876 0.022580506 -0.007482526 0.02627737 0.098108456 0.13004251
0.021402648 0.009698413 0.09606097 0.12953778 -0.012172736 0.025171107 0.10521168 0.14146827
0.086951666 0.107135184 0.030931782 0.0366471 0.24767572 0.03552802 0.083343446 0.11729233
0.003989337 0.053704742 0.14018571 0.07358218 0.04585036 0.010910791 0.06719381 0.03941418
0.10852919 0.034439813 0.081770435 0.11942499 0.01601807 0.07870142 0.08649006 0.09208763
0.007565775 0.08990745 -0.006870239 0.13383788 0.1223569 0.12744181 0.116400674 0.13105626
0.09569343 0.003722417 0.121600114 0.0061238576 0.14327604 0.0021081716 0.039927535 0.071245834
0.055151917 0.033847388 0.031705104 0.07143782 0.07463828 0.01557792 0.03402021 0.11877059
0.091170974 -0.0028279782 0.07028823 0.108204804 0.042414982 0.11135843 0.06714803 0.08477768

fc.1.weight f4 [64, 128]
00000000: b697 f33d cbdd 16be e9e6 99bc 8a3f bb3d
00000010: e288 263d 709c ea3a ae54 c03d 4773 a13b
00000020: 8878 203d 409e 163e 0a67 b6bc 6c6e 4b3d
00000030: af52 9cbc 2444 c03d f218 083d 7bdb 163e
00000040: fae3 a9bb 0ec4 f53d b368 103e 6c6a 833b
00000050: ebdd 513c 2820 9c3d b844 ab3c 5093 ad3c
00000060: 78a7 983d fafb b83c 43e7 0b3e 3e44 3ebb
00000070: df62 4d3b 9d71 093e 5877 b23d c7a7 0bbc
00000080: 5d37 54bd 95ee 993d 5b64 fc3d 9a23 8c3c
00000090: 579a a1bd f8c2 953c fcab a83d 3e71 6c3d
000000a0: 2ab4 c63d 5c72 c83d 0c54 e53d c5fe b83d
000000b0: 1ae9 023d abc8 2f3c 4655 cb3d 5f6e cc3c
000000c0: 0db7 873b ce10 d23d 243a 77bc 2d77 6f3d
000000d0: d874 813c 178e 00bd d004 363d 23b4 8b3c
000000e0: d5b0 c9ba 17e0 8cbc 1a24 1c3e c8c1 7c3d
000000f0: 6f7e 4fbd c6c6 0e3e 0617 8e3d 03c7 893d
00000100: f14c babc 3229 fe3d 68c0 e53d ec74 593d
00000110: 6f2d 87ba a0aa d33d 3998 f33d 76ee 043e
00000120: d32c c8bc 8190 3b3d 240c c23d 8d38 033e
00000130: 6619 13be 2925 4bbc 408b 393d 146f 853d
00000140: 65c7 0d3c 8de2 3a3d baaf 003d 9f72 ab3d
00000150: 9749 c7bc 322a d93c 28f9 ca3d 3c58 013e
00000160: 1a10 823d 3441 cd3d a30f 083e 76a2 da3d
00000170: 0269 6f3d 0688 d33d 7c86 363d 73fe 2c3d
00000180: e9f5 c03d 8f0b a73d 13f6 383c 9046 ba3d
00000190: 1ae9 4a3d 228b d33d 84bc 063e fd72 7d3d
000001a0: b60f 483a 70e7 a73d 138a 7d3d a490 f03d
000001b0: 0259 183e 923b 083e 05d2 603d 0a44 0b3e
000001c0: a620 2c3c d09f 053e 7134 0d3e 2956 143d
000001d0: 1402 a53d a8e2 5d3d b7ee 1c3e aaa5 dd3c
000001e0: 582f f73d fb91 103d ab4c f43d 0384 d83d
000001f0: 3a03 213c 15df dd3d b235 e13c 1cb9 783c
00000200: 78fe 5a3c 3d8c 4abd 0097 3f3b 6792 8cbd
00000210: c347 81bd 9bce a23d 3c62 88bc 00c0 76bd
00000220: 3292 253d c32e 933d e7a3 9abd 894c 82bd
00000230: f4b1 c9bc f811 bcbc 10ae 3f3c cc36 013d
00000240: d755 8d3d d178 5fbd b8ee c13c 72bd d5bc
00000250: 64ad 8fbd c0b9 55bc 0cfe 84bd a270 6c3d
00000260: c663 8dbd 17c3 10bd 7784 873d 6a06 89bd
00000270: 5073 de3c 82c9 b4bd b497 993c 3e9c 353d
00000280: d285 253d fd63 a2bd 8476 debc e294 8abd
00000290: 8b78 6dbd 062e 5c3d 5404 57bd f1f7 56bd
000002a0: ba1e 093d 778b 1ebd 9336 8bbd 18a4 2e3c
000002b0: e9f0 9bbd 00dc ce3c d925 96bd 5099 3ebc
000002c0: f02c 47bc 4f2f 5fbd 9d90 99bd fc4a 42bd
000002d0: 6377 a13d f476 9ebd de39 783d 4024 23bc
000002e0: 4bc8 a43d d0c5 88bc 0956 26bd 0d39 94bd
000002f0: 40aa 083b a8b5 b13c d266 063d 2fdb 8a3d
00000300: a9a0 96bd 205f c7bb 0aa3 f2bc 86cc f1bc
00000310: facd 493d 2764 803d 3873 9e3c 01d0 49bd
00000320: 7a76 043d 4efb 463d 480d 9abc 0a48 603d
00000330: 7866 c0bc 4029 0c3d 46c5 463d d505 5dbd
00000340: 9c38 a7bd 0eb7 333d ea8f 353d f32f 42bd
00000350: 3c32 42bd e054 92bd f783 04bd d0a3 433c
00000360: 1886 a83c f286 7e3d da7e 7a3d 0b7e 903d
00000370: 6485 90bc f29f 66bd c4d9 cdbc 5dee 43bd
00000380: 4467 85bc a149 24bd 706e 933c ee03 01bd
00000390: 0069 5cba 13fa 843d 14c6 e8bc f1e0 ab3d
000003a0: 123d 1f3d babe efbc a413 f1bc bac0 0d3d
000003b0: 295b 03bd c622 1e3d d835 7fbc b818 c7bc
000003c0: 96b4 adbd fc48 84bc c35a 823d 8863 10bd
000003d0: e562 57bd 7f07 a03d f4a3 afbc a500 99bd
000003e0: cfcf 12bd 49b0 803d 9284 603d d05c 3b3c
000003f0: cf65 8c3d 3add 703d 2c7f b3bd 9ba1 ab3d
0.11894171 -0.14733045 -0.018786864 0.091429785 0.040657885 0.0017899405 0.09391151 0.004927072
0.039177448 0.14708805 -0.02226593 0.049665853 -0.019082395 0.09387997 0.033226915 0.14732163
-0.0051846476 0.12000285 0.1410244 0.004010489 0.012809257 0.07623321 0.020906791 0.021188408
0.07453817 0.02258109 0.13662438 -0.0029032375 0.003133945 0.13422246 0.08714169 -0.008523888
-0.05181061 0.07516209 0.12323829 0.01710682 -0.07890766 0.018281445 0.082359284 0.057725184
0.09702332 0.09787437 0.11197671 0.090329684 0.031960584 0.010728995 0.09928374 0.024954973
0.0041416944 0.102571115 -0.015089545 0.058463264 0.015802786 -0.031385507 0.044438183 0.01705367
-0.0015387783 -0.017196698 0.15248147 0.06170824 -0.050657686 0.13943014 0.06937985 0.067274116
-0.022741767 0.12410201 0.11218339 0.05309002 -0.0010313223 0.103352785 0.118942685 0.1298159
-0.024435436 0.045792107 0.09474972 0.12814541 -0.14365157 -0.012398996 0.045298815 0.06515327
0.008653496 0.045626212 0.031417586 0.083714716 -0.024327083 0.026509378 0.09910804 0.12631315
0.063507274 0.10022202 0.13287215 0.10675518 0.058449753 0.10328679 0.044561848 0.04223485
0.09421904 0.081565015 0.011289137 0.0909549 0.04953871 0.10329272 0.1315785 0.06187724
0.00076317356 0.0819844 0.061899256 0.11746338 0.14877704 0.13303974 0.05488779 0.13600174
0.010505831 0.13049245 0.13789536 0.03621498 0.08057037 0.054171234 0.15325437 0.027056534
0.12069577 0.035295468 0.11928686 0.10572054 0.009827429 0.10833565 0.027491424 0.015180852
0.013366334 -0.049450148 0.002923429 -0.068638615 -0.063125156 0.07949563 -0.016648404 -0.0602417
0.040422626 0.071866535 -0.07550793 -0.06362254 -0.024620987 -0.022957787 0.011699215 0.0315464
0.06901138 -0.05455858 0.0236734 -0.026091311 -0.070154935 -0.0130447745 -0.06493768 0.057724603
-0.06903796 -0.035342302 0.066170625 -0.066906765 0.027154595 -0.08827497 0.018749095 0.044338457
0.040410824 -0.079292275 -0.027156122 -0.067666784 -0.057976287 0.05375483 -0.052494362 -0.05248255
0.03347657 -0.038707223 -0.067975186 0.01065924 -0.07614309 0.025251389 -0.073314376 -0.011633232
-0.01215671 -0.054488476 -0.07498286 -0.047434792 0.07884099 -0.07737532 0.06060206 -0.009957373
0.08046015 -0.016695887 -0.040609393 -0.07237444 0.002085343 0.021693066 0.0328129 0.06780087
-0.07354862 -0.006084338 -0.029618759 -0.02951647 0.0492687 0.062691025 0.01934205 -0.049270634
0.03233955 0.048579507 -0.018805161 0.0547562 -0.02348636 0.034219027 0.04852798 -0.05396064
-0.08165094 0.043875746 0.0443267 -0.04740901 -0.04741119 -0.07145095 -0.032352414 0.011940911
0.020571753 0.062140413 0.06115613 0.07055291 -0.01764173 -0.05630488 -0.025128253 -0.047834743
-0.016284592 -0.04010928 0.017996997 -0.03149789 -0.000840798 0.0649301 -0.028414764 0.083925135
0.0388766 -0.02926575 -0.02942831 0.034607626 -0.03206936 0.03860738 -0.015576802 -0.024303779
-0.0848171 -0.016148083 0.06364968 -0.03525117 -0.052584548 0.0781393 -0.021440484 -0.07470826
-0.035842713 0.06283624 0.05481393 0.011435702 0.06855356 0.058804728 -0.087644905 0.08380433

fc.1.bias f4 [64]
00000000: eae0 b13d a09e 47bb f77e 40bd 98fc 1bbc
00000010: 66fa 493d 525d 323d 8943 bebd 78df 433d
00000020: e74d 453d faaf 013d 9e86 a3bd 09d9 843d
00000030: ffe2 f73c e6e8 f93d 7e9a 773d 22a0 2a3d
00000040: ede1 1d3e 3837 673d c337 0e3e 21dd 5abc
00000050: 295c 00bd 2af9 e13d 156c ce3d 8b47 1d3e
00000060: 93f9 d73b 9a8c aebd 1c7b 8cbd 9d18 113e
00000070: b0af a83d f85e 0b3a d302 183d ac09 62bd
00000080: 61a1 403d 81e9 243e b77a 06b8 5efc a7bd
00000090: f85a 823c ac2c 27bd 1d07 b4bc 50a6 0e3c
000000a0: 3f0f fa3c 1ff2 0e3e 969a abbd 305b 1fbd
000000b0: a4d9 abbd 066c 8fbc 0978 20bd 623a ab3b
000000c0: 0291 b6bd b661 463d 8d1e 473d 27f5 bbbd
000000d0: a6b3 91bd c4d5 103d 38d1 c9bd 73ef 023e
000000e0: f648 b43d 59de 2e3c c909 1b3e af90 8ebd
000000f0: 7dc4 fbbc c10d 4b3d 0ffc d1bd c6b5 ab3c
0.08685477 -0.0030459538 -0.046996083 -0.009520672 0.049311064 0.04354603 -0.09290225 0.04782054
0.048169997 0.031661965 -0.079846606 0.06486709 0.030259607 0.12202625 0.06045007 0.04165662
0.15418215 0.056449145 0.13888459 -0.013358385 -0.03133789 0.110338524 0.10079209 0.15359323
0.006591031 -0.08522911 -0.06859419 0.14169545 0.08236635 0.00053165806 0.03711207 -0.055185005
0.047028903 0.161047 -3.2062377e-05 -0.08202432 0.015912518 -0.040814087 -0.021976048 0.008706644
0.030524848 0.1395955 -0.08379094 -0.038905323 -0.08391121 -0.017507564 -0.039176974 0.0052254656
-0.08914377 0.04843303 0.04861312 -0.091776185 -0.07114343 0.035360113 -0.098543584 0.12786655
0.08802979 0.010673129 0.15140451 -0.0696119 -0.030733341 0.049573664 -0.102531545 0.0209607

fc.4.weight f4 [2, 64]
00000000: 1d37 243e 486e 95bc ddc7 9bbd b290 0e3e
00000010: d040 1ebd 9218 263e eec5 77bd 1e81 14bd
00000020: ea38 e1bd 0c48 f2bd 363e e7bc ad75 933d
00000030: 757a 493d 1d37 923d ecf7 7fbd eec9 8dbd
00000040: 390c 8a3d e8f1 24bd 933d e23d 7d7d 24bc
00000050: 9c13 1b3e be2f 143e edc1 9b3d 36e3 193d
00000060: 1dc2 2f3e ae9e eabd 5a0f 833a 1f82 c73d
00000070: 5c0c f83d fa26 8abd 9a42 4e3c e5a8 793d
00000080: 702d 3ebd 599f 953d 27d7 1abd ccd7 d0bd
00000090: a132 adbc 44ce aabd b71b f93c 3a97 e23d
000000a0: 72b2 0b3e 5533 253e 66af 3d3d 0a28 c7bd
000000b0: fa3a f9bd 93ff 173e 958c 9bbc 471d babd
000000c0: f2e0 07bb ab95 093e 6b16 61bd 4047 2e3d
000000d0: d48d d93d 50ef e3bc 5b33 afbd 2ae2 973d
000000e0: 744c a93d c04d 59bd 71df d03d 8687 313d
000000f0: c646 97bd e073 4a3e 60c6 d83d 18e0 49bd
00000100: 0e52 133e 0000 a93d 235f 8f3d 43ec e03d
00000110: 0801 1cbd bdf3 993d 9a54 0ebd 3ae7 c83b
00000120: eb08 dabd b089 f63d dbff a5bd fa34 643e
00000130: 6729 083e 9f9c 063e de76 c8bd 0076 30bc
00000140: 7bb0 0a3e 963a 3cbc b10d 0c3e a01e 1bbd
00000150: c8b8 ce3d f314 883d ab0b 003e 94b5 393e
00000160: 7b77 473d 8875 80bd a1a3 83bd 6b1b b63d
00000170: 4d4a 073e 0c7d dfbd 73ed 3a3e 19e1 b7bd
00000180: b1fa 79bd bccd cb3d f8ae 6bbd 65d8 5bbc
00000190: e899 a73e a47c 64bd 229a e2bd 1085 c33d
000001a0: 2065 ad3d 898a 033e f2a6 d1ba 8099 40bd
000001b0: f4bc dabd d0e9 f23d 64a3 4ebd b57b 223d
000001c0: 26b1 16bd ea15 073e cd6b bb3c 2e04 b4bd
000001d0: c2cb f3bd e2f4 dabd b894 77bb 5b0f e93d
000001e0: ed23 033e f961 ecbd 74ed c43d 8202 cc3d
000001f0: 120c 753d b582 353d 7ee9 9b3d a8bc 3abd
0.16036649 -0.018241063 -0.0760648 0.13922384 -0.03863603 0.1622031 -0.060491495 -0.03625595
-0.109971836 -0.11830148 -0.028227907 0.07200179 0.04918905 0.07139418 -0.062492296 -0.06923281
0.067406125 -0.040269762 0.110469006 -0.010039684 0.15144199 0.14471337 0.07605348 0.0375702
0.17163892 -0.11456047 0.0009999082 0.097416155 0.12111732 -0.067457154 0.012589121 0.060952086
-0.04643005 0.07305784 -0.03780284 -0.1019741 -0.021142306 -0.08340123 0.030408723 0.110640004
0.1364229 0.16132863 0.04630985 -0.09724434 -0.12169452 0.14843588 -0.018987933 -0.090876155
-0.0020733443 0.13436 -0.05495302 0.042548418 0.10622755 -0.027824074 -0.08554717 0.07416184
0.082665354 -0.053052664 0.10198868 0.043342136 -0.07386546 0.19770765 0.10584712 -0.049285978
0.1438677 0.08251953 0.07000568 0.10982563 -0.03808692 0.075171925 -0.03474865 0.00613108
-0.10646232 0.120379806 -0.08105441 0.22285834 0.13297044 0.13145684 -0.09788297 -0.010770321
0.13543884 -0.011488577 0.13677098 -0.037871003 0.10093838 0.06644621 0.12504451 0.18135673
0.04869793 -0.06272417 -0.06427694 0.08891948 0.13211937 -0.10912523 0.18254642 -0.08978481
-0.061030094 0.0995135 -0.05753991 -0.013418292 0.3273461 -0.05578293 -0.11064555 0.09546864
0.08466554 0.12845816 -0.0015995188 -0.04702139 -0.10680571 0.118610024 -0.05044879 0.039668757
-0.036790036 0.13191953 0.022878552 -0.0878986 -0.11904098 -0.10691239 -0.0037777852 0.11379882
0.12806673 -0.11542124 0.09615603 0.09961416 0.059825964 0.044314105 0.076128945 -0.045590073

fc.4.bias f4 [2]
00000000: 40bc 0d3e ecff 8b3e
0.13841343 0.2734369
